outputs/func1_10.pt (torch, 122646 bytes, 99 tensors)

embedder.embedder.weight f4 [16, 9]
000000 f3 03 86 3e 3b 6b 5a 3d cc f0 d2 be 6f fb 9e 3e
       0.26174888 0.05332492 -0.41199338 0.31051204
000010 0d 71 a4 3f ae 4c 15 3e 98 ca c5 3e 66 a4 50 3e
       1.2847 0.14580032 0.3863113 0.20375213
000020 e7 e6 3b be 2c cb b7 be 06 54 97 3e aa 16 6f be
       -0.18349801 -0.35897195 0.29556292 -0.2334849
000030 00 3c 2f 3e 6b d6 04 3f 68 10 90 be ad bb 42 bc
       0.17112732 0.51889676 -0.28137517 -0.011885566
000040 01 4c 86 be 17 8e 11 3e d1 08 6f 3d 38 70 4a bc
       -0.2622986 0.14214359 0.058358017 -0.012355857
000050 4c 0c 44 3d 40 3e 92 bd 01 b3 a9 3f b5 1b 76 3e
       0.04786329 -0.071407795 1.3257753 0.24034007
000060 d5 9b 29 3e d3 82 60 be 25 74 96 be 28 10 a4 3e
       0.16563351 -0.21924905 -0.29385486 0.32043576
000070 3e d3 50 be 30 20 23 3e da 42 32 be 34 c1 44 3f
       -0.20393082 0.15930247 -0.17408314 0.76857305
000080 9d 58 57 bd c3 c1 32 3f 54 af 6c 3f 12 25 a7 be
       -0.052574743 0.69826907 0.9245503 -0.3264547
000090 e3 b1 a3 bd e9 6b 45 be a7 9f 01 3e 79 9c 28 be
       -0.079929136 -0.19279446 0.12658559 -0.1646594
0000a0 c3 51 b7 3f 7c 81 71 3e 10 fc 51 3d f5 6a c9 be
       1.4321827 0.2358455 0.051265776 -0.39339414
0000b0 32 1e af 3d b1 79 d9 be fe 4c 28 3e d7 8e 42 3e
       0.08550681 -0.42475656 0.1643562 0.18999802
0000c0 80 e0 74 be 42 c9 30 3f 4b 1a 4a 3e 20 42 2f be
       -0.23913765 0.69057095 0.19736592 -0.17115068
0000d0 52 47 5c 3e 52 81 9d 3e a6 8a 3b 3e 9b 7d 80 3d
       0.21511582 0.30762726 0.18314609 0.06273957
0000e0 02 52 43 bd 02 fa e8 3d 20 c9 b1 3f be a6 18 be
       -0.04768563 0.1137581 1.3889503 -0.14907357
0000f0 2f 68 da 3d 91 60 bf be 6e 21 74 3e b3 c6 06 bd
       0.10664403 -0.37378362 0.23840877 -0.032904338
000100 db ff fc bd 19 9f 36 3d 1c 6d f2 be cd 18 75 3f
       -0.12353488 0.04458532 -0.4734887 0.9574097
000110 7f d1 96 be 56 fd e3 3c 05 17 47 bd bb 19 14 3e
       -0.29456708 0.02783076 -0.048605938 0.1446294
000120 8c 46 26 3e e6 d1 de bd 5f 4d af 3e 99 0c c2 be
       0.16237849 -0.10879879 0.34238717 -0.37900236
000130 44 f3 42 3f ef 3b 71 3e ab 69 8d 3e 42 63 78 bc
       0.76152444 0.23558019 0.2761968 -0.015160384
000140 fd e7 a8 3e 1e 84 14 be 0f 17 31 3e a8 c2 ab be
       0.32989493 -0.14503524 0.17293952 -0.33546948
000150 c0 12 56 3e 69 18 ba 3f 1d 52 9b 3d b4 f6 c7 3e
       0.2090559 1.4538699 0.07584021 0.39055407
000160 2d 08 bc 3e c8 26 91 3e a9 29 10 be 64 bc 8b 3e
       0.36724988 0.283499 -0.14078392 0.27292168
000170 3a 1f 91 3e 54 ce 0f 3c 5f 9f 8c 3f 2a 04 91 bd
       0.28344136 0.00877722 1.0986136 -0.07080872
000180 85 ee 8c 3d c4 53 9a 3e 8e f7 cf 3d e9 04 50 3e
       0.068814315 0.30142033 0.10154639 0.20314373
000190 a2 99 d2 3b b3 e6 bf 3d d4 33 74 3e fa be 2a 3f
       0.006427006 0.09370174 0.23847896 0.6669766
0001a0 c2 e7 26 3e a8 7c 20 3e 18 e9 1b 3d 85 9b c5 3b
       0.16299346 0.15672553 0.038064092 0.0060305023
0001b0 79 21 80 be a1 8f 79 be 14 08 96 bc 81 3a a1 3e
       -0.25025538 -0.24371196 -0.018314399 0.31489947
0001c0 5f 09 57 3f a6 d6 75 be d3 4f 07 3f 21 b6 96 3a
       0.83998674 -0.24007663 0.5285618 0.001149837
0001d0 11 94 80 be 8c d1 58 3e 98 28 ae 3d 97 06 e9 be
       -0.25112966 0.21173686 0.085038364 -0.4551284
0001e0 04 39 6b bd 22 3a 24 3f df 3e 5e 3e 78 c0 ef 3c
       -0.05742742 0.64151204 0.21703671 0.029266581
0001f0 63 94 aa 3e 2e d3 4e be 01 02 c8 3e 9f 42 b5 be
       0.33316335 -0.20197746 0.3906403 -0.3540239
000200 26 5c db 3d be 6c cd 3d db 86 df 3e 0d de 62 be
       0.10710935 0.100305066 0.43657574 -0.22155018
000210 0c 5a 95 3e 30 01 94 3e 8e dc a8 bd b9 31 84 be
       0.29170263 0.28907156 -0.082451925 -0.25819185
000220 f9 a8 4e bd ae cd 37 be 1b bc 8f 3e fd 51 b2 3f
       -0.050454114 -0.17949554 0.280732 1.3931271
000230 9d d7 89 be 7b bb 4b 3e d0 46 4b 3f 48 c6 44 3e
       -0.26922312 0.19895737 0.79404926 0.19216263

encoder.0.MHA_sublayer.MHA.W_query f4 [4, 16, 4]
000000 05 32 8f 3f d4 58 0c 3f e3 4c 9a 3f 4f 1f 9e 3f
       1.118714 0.5482304 1.2054714 1.2353305
000010 90 b8 84 3f 48 43 97 3f e5 1a a4 3e 0a c7 76 3f
       1.0368824 1.1817408 0.3205177 0.9639746
000020 7b 70 53 3f 54 1a 14 be b6 8e 34 3f 60 3e 05 3f
       0.82593507 -0.14463168 0.7053026 0.520483
000030 be 82 d9 bd 78 34 0a 3f d5 f0 2f 3f e8 74 13 3f
       -0.1062064 0.5398631 0.68726856 0.5760026
000040 79 4d 1e 3f e2 1a 8a 3e 7f 31 f5 bd b5 06 08 3f
       0.61836964 0.26973635 -0.11972331 0.53135234
000050 0b 95 80 3e 26 7e ae 3e 05 33 8d 3d db 14 0b 3e
       0.2511371 0.3408062 0.06894497 0.13582174
000060 42 bd ea 3e c8 0a 95 3f a5 97 19 3f eb 21 56 3f
       0.45847517 1.1643915 0.59997016 0.83645505
000070 4c ab 58 bd 72 1c 83 3e 52 df 48 be 59 cd 40 be
       -0.052897736 0.2560764 -0.1961644 -0.18828334
000080 60 61 11 3f 2a da 56 3f dd 8f 09 3f fa 0c 64 3e
       0.5678921 0.8392664 0.5373514 0.22270575
000090 f0 4c 6c 3f 9c cc 94 3f 86 ac 8f 3f 0d ad 91 3f
       0.923049 1.1624942 1.1224525 1.1380936
0000a0 40 1f ce 3e 81 3d 04 3f 60 76 49 3f fb 26 55 3f
       0.40258217 0.5165635 0.7869625 0.83262604
0000b0 5c e1 4d 3f f4 39 fc 3e b1 d4 b9 3e a5 f0 9f 3e
       0.80421996 0.49262965 0.36295083 0.31238285
0000c0 11 5f 56 3e 54 64 34 3e ec 94 7c 3f b3 f2 9c 3e
       0.20934702 0.17616397 0.98664737 0.30653915
0000d0 1d 8b 1d 3f 4a 7e 1d 3f a2 5f f7 3e cd 7f 11 3f
       0.61540395 0.61520827 0.4831515 0.56835634
0000e0 52 f7 07 3f f5 fe 13 3f d5 66 10 3f 42 83 2b 3f
       0.53111756 0.5781091 0.5640691 0.6699716
0000f0 54 90 49 3f 8f a6 98 3f f0 ce 83 3f 6e a9 c7 3e
       0.7873585 1.192583 1.0297527 0.38996452
000100 2f df 2f 3f 12 5e 89 3f 4c 3c 89 3e 9d e3 03 3f
       0.68699926 1.0731833 0.26803815 0.51519185
000110 26 1b 51 3f ea 1e 4d 3f f5 75 01 3e 79 23 23 3f
       0.8168205 0.80125296 0.12642653 0.63726
000120 91 9c e7 3e 92 87 8d 3e 87 13 69 3f 48 c2 cd 3d
       0.45236638 0.27642494 0.9104542 0.10046822
000130 76 9c 8c 3d 8b 83 51 3f 2e 4a 3e 3f 4e f7 4f 3d
       0.0686578 0.81841344 0.7433194 0.050772958
000140 71 b1 f2 3e a2 db 56 be c6 72 e8 3d 4c 05 19 3f
       0.47401002 -0.20982221 0.11350016 0.5977371
000150 d5 80 60 3f e6 8a ea 3c 4c 9c ad 3e 56 f8 48 3f
       0.8769658 0.028630685 0.33908308 0.7850393
000160 8c 52 e6 3e 55 41 e4 3e 59 1c 44 bd 0d f2 27 3f
       0.44984853 0.44581094 -0.047878597 0.65603715
000170 e7 39 86 3f 49 68 28 3f 3b ac b7 3e 26 a5 bb bd
       1.048642 0.65784127 0.3587359 -0.09162359
000180 ec 71 93 3f 60 9b 0a 3f ce 09 1b bd 8c 4c 05 3f
       1.1519141 0.54143333 -0.037851147 0.52069926
000190 6e 75 55 3e 49 cb a4 3d f8 21 20 3f 9b 0d 6d 3f
       0.20845577 0.08046586 0.6255183 0.92598885
0001a0 d2 fe 37 3f 4b 9c 13 3f ec 39 e5 3e 26 7f a5 3e
       0.718732 0.5766036 0.44770753 0.3232357
0001b0 34 8b ad 3e 5d 05 c6 3e 64 79 d6 3e 59 6b da 3d
       0.33895266 0.38675967 0.4188949 0.10665006
0001c0 3a c3 01 3e 38 8a d4 3e 34 e9 22 3f 6a 3a 7c 3e
       0.1267213 0.41511703 0.6363709 0.24631658
0001d0 a6 52 4a be 0c da 54 3f 25 d4 2c 3f 02 0f 5c 3f
       -0.1975809 0.83145213 0.67511207 0.859604
0001e0 b2 f6 85 3e 9e ed 78 3f 87 b7 a0 3e 5a 27 1f 3e
       0.26164776 0.97237575 0.3139002 0.15542355
0001f0 81 1c 0a 3f d5 c7 69 3e f1 75 39 3a 75 90 64 3e
       0.53949744 0.22830136 0.00070747646 0.22320731
000200 90 6c 85 3f cf 39 36 3f 24 61 85 3f 6a 9e ca 3c
       1.0423756 0.7118196 1.042027 0.02473374
000210 7c e7 43 3f 11 61 6b 3f f1 97 31 3f a0 41 d8 3e
       0.7652509 0.91944987 0.6937247 0.42237568
000220 e3 5f 57 3f 08 1f f3 3e c5 8e 8a 3f 82 2a f3 3e
       0.84130687 0.47484612 1.082482 0.47493368
000230 29 14 61 3f 9a 26 1b 3f 32 1c 8d 3f d5 f8 d0 3e
       0.87921387 0.60605776 1.102423 0.40814844
000240 b5 f3 c7 3e 2a e1 a7 3e 5a cb 8c 3e 40 fa 06 3e
       0.3905312 0.32788974 0.27498895 0.131814
000250 08 b2 25 3f 2e 03 6d 3f 62 1a 2f 3f 88 d0 76 3f
       0.6472478 0.92582977 0.6839963 0.96411943
000260 8d 5c e9 3e 08 4a 67 3f 3b f5 25 3f 56 a4 1e 3f
       0.45578423 0.9034734 0.64827317 0.61969507
000270 1c 90 e5 3e 21 d3 3c 3f 8c 91 18 3f a5 d0 50 3f
       0.4483651 0.7375966 0.59597087 0.81568366
000280 3f dd 05 3e 4d 5a 3e 3f 49 09 76 3e e2 b4 11 3f
       0.1307268 0.7435654 0.2402698 0.5691663
000290 5e 46 91 3e ba e6 16 3f ed 51 be 3d 3f a4 19 3f
       0.28373998 0.5894581 0.0929297 0.60016245
0002a0 23 22 d5 3e 02 f7 48 3e b9 24 0a 3e 0e d3 21 3e
       0.41627607 0.19625476 0.13490571 0.15803167
0002b0 95 ca ce 3e fa bb 2d 3d fc 2a 9f bd 9c 7f 0c 3f
       0.40388933 0.042415597 -0.077718705 0.54882216
0002c0 e5 fd 11 3f 7f c1 dc 3e fb 14 83 3f b5 1c 4a 3e
       0.5702804 0.43116376 1.0240778 0.19737513
0002d0 52 57 89 3e b5 e0 fe 3e a5 7d 44 3f fa e8 18 3f
       0.26824433 0.49780813 0.7675422 0.59730494
0002e0 3b 78 47 3f 99 4b 62 3f cf ad 86 3f 44 c8 6c 3e
       0.7791783 0.883966 1.0521792 0.2312327
0002f0 6e 62 11 3e 16 3a 52 3f 04 73 36 3f 86 3d 5c 3e
       0.14197704 0.8211988 0.7126925 0.21507844
000300 f0 9e 83 3e f1 02 2b 3f 7d 99 04 3f 90 7f 9c 3d
       0.25707197 0.66801363 0.51796705 0.07641518
000310 2b 1f 59 3f 47 b2 32 3f c9 fb 48 3e c8 f0 43 3f
       0.84813184 0.6980328 0.19627298 0.7653928
000320 4e f5 e8 3d 0f 41 0b 3d 7d 81 18 3f 7a f9 4b 3f
       0.11374913 0.03399759 0.59572583 0.79677546
000330 4b 3b d7 3d 24 7b 1d 3e 1f 5b b5 3e 1a 3c c1 3e
       0.10509356 0.15379006 0.35421082 0.37741166
000340 08 0c 41 3f 86 ee 2e 3f 45 63 5f 3f 75 14 c4 3e
       0.75408983 0.6833271 0.8726085 0.38296857
000350 4b c1 4e 3f 0e fa 54 3f f0 4c ed 3e e0 15 a4 3d
       0.8076369 0.83194053 0.4634776 0.08011985
000360 f7 95 86 3f a7 6e 43 3f 3c 0c 05 3f 88 14 4d 3e
       1.0514516 0.7634072 0.51971793 0.20027363
000370 24 49 49 3d 00 f6 e3 3e b7 c6 96 3f d7 b4 48 bd
       0.049142018 0.4452362 1.1779393 -0.049000587
000380 c0 16 8b 3f 7b 18 6c 3e 1e 17 3f 3f 52 94 60 3d
       1.0866318 0.23056214 0.7464465 0.05482895
000390 fd 50 00 3f 5c 05 2b 3f 2f fe b6 3e 5b 54 60 3c
       0.5012358 0.6680505 0.35740802 0.013691987
0003a0 89 01 70 3f 9e 77 2b 3f 0f b2 76 3e 0c 7a 83 3e
       0.9375234 0.66979396 0.24091361 0.25679052
0003b0 7b 7c 2a 3f 5c e4 26 3f fa f8 73 3e ef b1 4f 3f
       0.6659619 0.651922 0.23825446 0.8113088
0003c0 98 8a 5e 3c 09 95 0e 3f d0 97 84 3e fb c3 e8 3e
       0.013582848 0.5569616 0.25897074 0.4546202
0003d0 b4 d2 08 3f d5 34 50 3f 44 8c 7e 3e f5 8f 6c 3f
       0.5344651 0.81330615 0.24858195 0.9240716
0003e0 58 41 3a 3f e0 19 1e be 44 1f cc 3e 6b f7 2c 3f
       0.72755957 -0.15439558 0.39867604 0.6756503
0003f0 77 14 72 3f 2c 00 43 3f fd ab 5b 3f 47 e5 5e 3e
       0.94562477 0.7617214 0.8580931 0.2176715

encoder.0.MHA_sublayer.MHA.W_key f4 [4, 16, 4]
000000 54 74 3b 3f 10 ec 45 3f b4 7b 81 3d 57 57 04 bc
       0.7322438 0.7731333 0.063224226 -0.008077464
000010 a6 bf 8d 3f bb 64 17 3f ba af 78 3f 03 8b 4b 3e
       1.1074111 0.5913808 0.9714314 0.19877248
000020 78 f2 8d be 87 00 58 bd 50 02 b4 be f5 98 0f 3f
       -0.2772405 -0.052734878 -0.35158014 0.5609277
000030 40 78 a0 be ea d3 5f be 16 91 5f be ea 99 a3 bd
       -0.31341743 -0.21858183 -0.2183269 -0.07988341
000040 56 a2 aa 3f 1d bf 32 3f 9e 82 9e 3f 2a 9f ca 3e
       1.3330791 0.69822866 1.2383611 0.39574558
000050 f2 df a7 3f b9 0a 7d 3f af a9 10 3f 36 56 8c 3f
       1.3115218 0.98844486 0.56508917 1.096381
000060 c6 ce 29 3f ba d6 a7 3e 46 63 91 3f 0e a9 a0 3f
       0.66331136 0.3278101 1.1358421 1.2551591
000070 42 d3 10 3f 96 b1 61 3f cf a4 62 3f 5e 87 2a 3f
       0.56572354 0.881616 0.8853273 0.66612804
000080 d6 45 79 3f 32 2d 35 3f f1 85 92 3f 32 9f 1f 3f
       0.97372186 0.7077209 1.1447126 0.6235229
000090 44 99 8e 3f 35 66 00 3f 35 29 27 3f 5f e6 47 3f
       1.1140523 0.50155956 0.6529725 0.78085893
0000a0 ab 9d 30 3f 4b 93 86 3f 00 d6 85 3f 09 37 8c 3f
       0.6899058 1.05137 1.0455933 1.0954295
0000b0 82 a4 8a 3f b2 a6 93 3f d3 11 df 3d 85 e7 46 3f
       1.0831454 1.1535246 0.108920716 0.7769702
0000c0 92 ba 64 3d 98 90 ac 3e ec 48 05 3d e4 ea 23 3e
       0.05584199 0.33704066 0.032540247 0.16007572
0000d0 2b 67 79 be 7a f8 3d 3f 99 84 8d 3e dc 08 48 3e
       -0.24355762 0.7420727 0.27640226 0.1953463
0000e0 13 b8 7b be f4 01 e2 be 54 80 95 3c 09 8a d1 3d
       -0.24581937 -0.44142115 0.018249668 0.10231406
0000f0 b2 a4 89 3f 60 2a 5c 3f 7a 9a 5f 3f 88 be 85 3e
       1.0753386 0.8600216 0.8734509 0.26121926
000100 40 e6 70 3f ef b6 bd 3e 1d 08 d4 bc ab f7 65 3f
       0.94101334 0.3705363 -0.025882775 0.89831036
000110 e3 75 29 3f f8 cb d7 3e 47 f9 9c 3e 77 d5 21 3f
       0.66195506 0.42147803 0.30658934 0.63216347
000120 7d 3c 5e 3f f8 5f d9 3e 63 ee e7 3e c3 a0 a0 3e
       0.8681105 0.4245603 0.45299062 0.3137265
000130 cd ab 19 3f 05 d8 df bd 1a ef 62 3e d3 62 46 3f
       0.6002777 -0.10929874 0.22161523 0.77494544
000140 7e af 25 3e 42 52 cd 3e 82 8b 16 3d 90 49 fa 3e
       0.16180226 0.4010182 0.03675414 0.4888425
000150 57 ee b6 3e 0a df 88 3f 49 61 b3 3e 8e 07 a5 3e
       0.35728714 1.0693066 0.3503516 0.32232326
000160 78 f4 58 ba 6f 1d 61 3e 29 46 fb 3e 21 5f 23 3f
       -0.0008276175 0.21983884 0.49076965 0.6381703
000170 85 ac 82 3e 47 29 8a 3e 6e b0 69 3f 71 05 0d 3f
       0.25522247 0.26984617 0.91284835 0.5508643
000180 4a 2e 60 3f a0 30 1e 3e 48 a1 16 3f f8 da 14 3f
       0.8757063 0.15448236 0.58839846 0.5814662
000190 d4 7e 45 3f 73 50 ea 3e 4a 4e d7 3e 43 9a 58 3f
       0.7714665 0.45764503 0.42051917 0.84610385
0001a0 60 02 09 be 25 f4 57 3f b5 4b 0b 3e 85 b9 04 3f
       -0.13379812 0.8435691 0.13603099 0.5184558
0001b0 73 bc e9 3e ac 4a 9d 3e 87 93 df 3e 78 29 59 3f
       0.45651588 0.30721033 0.43667242 0.848289
0001c0 dd 29 ab 3e c6 a4 b7 3e da 5d b0 3e 94 f0 90 3f
       0.33430377 0.358679 0.34446603 1.1323419
0001d0 74 cf 6e 3f 13 16 06 3f 66 24 fc 3e 1f 00 5a 3f
       0.932853 0.5237743 0.4924652 0.85156435
0001e0 05 da 90 3e 7a 39 75 3d f8 1c 69 3f 46 6f 30 3f
       0.28291336 0.059869267 0.9105983 0.6891979
0001f0 85 5f e1 bd 35 4c 4a 3f da fa 47 3f d7 13 60 3f
       -0.11004547 0.7902253 0.78117144 0.87530273
000200 20 89 81 3f 17 5b 37 3f da 92 4c 3f c0 ea 40 3f
       1.0119972 0.7162337 0.7991158 0.753582
000210 22 fd e5 3e 4f 72 b9 3c 93 b7 bf 3e a4 67 56 3d
       0.44919688 0.022637514 0.37444744 0.052344933
000220 af b3 c1 3e 00 31 6c 3f 7e 95 17 3f 56 b4 53 3f
       0.378324 0.9226227 0.5921248 0.82697046
000230 16 26 09 3f d7 41 7d 3f ea f1 aa 3e f6 24 1a 3f
       0.5357374 0.9892859 0.3338769 0.6021265
000240 40 76 82 3f dd fe e1 3d 33 7f 00 3f 7c b0 7f 3c
       1.0192337 0.110349394 0.5019409 0.015606042
000250 54 a7 01 3f e0 36 cd bc 9e 59 8d 3f ca a9 42 bc
       0.5064595 -0.02505058 1.1042974 -0.011881301
000260 5b a3 6f 3f 5e d2 3e 3f 03 a9 60 3f 98 3b 44 bd
       0.93608636 0.74539745 0.8775789 -0.047908396
000270 71 60 43 3f cd 73 1a 3e 77 c9 69 3f 0e 96 3e 3f
       0.7631903 0.15083237 0.91323036 0.74447715
000280 db 6b 49 3f 71 61 3e be f4 9e 37 3f 51 16 89 3e
       0.786802 -0.18591858 0.7172692 0.2677484
000290 c3 b3 45 3f fe f4 b2 3e 69 7e 6b 3f 63 af 06 3f
       0.7722742 0.3495254 0.9198976 0.5261137
0002a0 ab e3 8d 3e 9d a2 f9 bc 2d d0 5e 3f e9 e7 9a 3e
       0.2771276 -0.030473048 0.870364 0.30255058
0002b0 34 59 48 3e 69 c6 0f bd 8a 15 21 3f 93 a6 de 3e
       0.19565278 -0.035101328 0.6292349 0.4348646
0002c0 9d 02 08 3f 96 cb 92 3e a9 2e 28 3f c1 38 48 3f
       0.5312899 0.2867095 0.656962 0.782116
0002d0 d0 54 e4 3e 4c 1c db 3e be 3b b1 3c a2 9a ac 3e
       0.44595957 0.42795026 0.021634933 0.33711725
0002e0 33 15 5d be 6f f1 29 bc 08 f2 d2 3e 27 e7 2a 3f
       -0.21590118 -0.010372504 0.4120028 0.6675896
0002f0 0b 26 45 3f 96 fc aa bd 02 39 4f 3f 72 3c c0 3c
       0.77011174 -0.08348958 0.8094636 0.023466323
000300 3f d9 1e 3f 7b 4d 7b 3f 43 ed f2 3e bd 1e 34 3e
       0.6205024 0.981651 0.4744664 0.1758985
000310 1f c3 f8 3e 20 f9 00 3f 20 5f 6c 3f 7f 21 28 3f
       0.48586366 0.50380135 0.9233265 0.6567611
000320 a3 e0 06 3f 0c 83 15 bd 26 3f 2a 3f db fe f1 3c
       0.5268652 -0.03650193 0.66502607 0.02954047
000330 51 ac 33 3f 92 fc 05 3f 95 d6 89 bc b1 c4 32 3f
       0.7018481 0.52338517 -0.016825953 0.6983138
000340 bc da 7a 3f e0 14 91 3e 17 7f 69 3f 2c 50 8c 3d
       0.9799001 0.2833624 0.9120955 0.06851229
000350 1f 36 a0 3e 48 4e 3d 3f 21 60 02 3f 51 4a 82 3e
       0.3129129 0.7394757 0.5092793 0.25447324
000360 52 f7 aa 3b 22 a1 59 3f 49 95 80 3f bf c3 6d 3e
       0.005217471 0.85011494 1.0045558 0.23219202
000370 e1 f4 53 3f 38 4e 5a 3f 2b 17 15 3e f0 51 50 3e
       0.8279553 0.852756 0.14559619 0.20343757
000380 9a 2d ca 3e 61 60 67 3f 6f 35 51 3f 79 13 1f be
       0.39487916 0.9038144 0.8172216 -0.15534772
000390 19 c9 e2 3e e8 b1 7b 3f c4 ee 41 3f 77 f7 c7 ba
       0.4429405 0.9831834 0.7575495 -0.0015256245
0003a0 c7 27 4c 3f 69 94 4c 3f a7 3f 6f 3f 67 64 59 3f
       0.79748195 0.79913956 0.934565 0.84918827
0003b0 61 81 91 3d c3 d1 6f 3f b3 35 40 3e 24 ba 25 3f
       0.07104755 0.93679446 0.18770485 0.64737153
0003c0 35 94 bd 3e 28 62 52 3e 28 ab cb 3e 4c 9f 5a 3f
       0.37027135 0.20545256 0.3977902 0.8539932
0003d0 9e a3 1d 3e 09 b2 78 3e 03 d6 f0 3d 90 19 0e 3f
       0.15394446 0.24286665 0.117595695 0.55507755
0003e0 17 73 30 be d4 04 d1 3e 8d 9f 4a 3f 1e b5 66 3f
       -0.17231403 0.40823996 0.79149705 0.9012011
0003f0 8d 84 0d 3f b7 8b 6f 3e c5 a2 21 3e e0 4b bd 3e
       0.5528038 0.2339314 0.15784748 0.3697195

encoder.0.MHA_sublayer.MHA.W_val f4 [4, 16, 4]
000000 3b 1b ba 3e 99 bb be 3e 5c 44 c4 bd aa 67 9f 3e
       0.363489 0.372525 -0.09583351 0.31133777
000010 87 07 17 3f 55 09 80 3e 55 ce 3e 3f 16 6d 32 3f
       0.5899586 0.2500712 0.7453359 0.696977
000020 a2 ea f3 3e c1 36 69 3f b5 27 4a 3f c5 42 7a 3e
       0.47639948 0.9109917 0.7896684 0.24439533
000030 f9 eb 1e 3f 1b 37 b2 3e b9 50 3d 3f 5f 8c 56 3f
       0.62078816 0.34807667 0.739513 0.8380794
000040 d1 f3 80 3f c3 40 50 3f 20 f1 b3 3e 78 bd 62 3e
       1.0074407 0.8134882 0.351449 0.22142589
000050 46 0f 27 3f 19 31 38 3e 58 dc 6e 3f 55 99 57 3f
       0.6525768 0.1798748 0.9330497 0.8421834
000060 2b a1 14 3f 6f 46 58 3e 87 06 41 3f 59 2e 49 3e
       0.5805842 0.21120618 0.75400585 0.19646586
000070 5d 50 f6 bd 5c dc 3b 3e bb 80 6f 3f e3 19 24 3f
       -0.12027047 0.18345779 0.935558 0.64102
000080 08 72 41 3f 1c 94 c7 3e 50 07 8a 3f 14 14 64 3e
       0.7556462 0.38980186 1.0783482 0.22273284
000090 6a d9 77 3e bc 4c 24 3f 22 bc 66 3f e4 b4 9e 3e
       0.2420403 0.6417959 0.9013082 0.30997384
0000a0 f7 5b 6e 3f 17 61 09 3f 17 9e 62 3e bd ea 72 3f
       0.9310908 0.5366377 0.22130619 0.9488943
0000b0 50 48 80 3f 12 1c ca 3e 85 a8 a7 3e 17 6e 1a 3f
       1.0022068 0.3947454 0.32745758 0.60324234
0000c0 41 27 e6 3e 24 4d 81 3f 32 9c aa bd ee 0e 64 3f
       0.44951823 1.0101666 -0.08330573 0.8908528
0000d0 98 70 ca 3e 87 52 4d 3f a0 95 45 3e 3f a9 3f 3f
       0.39539027 0.8020405 0.19295359 0.74867624
0000e0 27 be 02 3f 37 f6 bd 3e 68 89 03 3f 58 3c 57 3f
       0.510714 0.3710191 0.5138154 0.8407645
0000f0 51 9d 84 3e e3 4b c3 3e 16 e0 6b 3f 5e 37 ac 3e
       0.25901273 0.38143834 0.92138803 0.33635992
000100 65 61 f8 bc 27 d7 30 3f dc f1 23 3f 54 c9 46 3f
       -0.030319879 0.69078296 0.64040923 0.7765095
000110 f7 e3 3e 3f 5f a8 ff 3e d9 13 70 3d f4 aa 1e 3f
       0.74566597 0.49933144 0.05861268 0.61979604
000120 e8 02 2f 3f 43 3c 49 3f 02 b2 5a 3f 50 0d e3 3e
       0.6836381 0.7860758 0.8542787 0.44346094
000130 19 ae 95 3e 3c a0 d8 3d 7a 9f 02 3f 9f c6 3b 3f
       0.29234388 0.10577437 0.5102459 0.73349947
000140 c8 ba 40 3f ff b8 d5 3d c6 21 44 3f 03 1f 5c 3f
       0.75285006 0.10435676 0.76614034 0.8598482
000150 43 15 cc 3e a1 5c 5a 3f 5d 96 40 3f 3c 61 17 3e
       0.3985997 0.8529759 0.75229436 0.14783186
000160 41 1c bd 3e 3d 74 fd 3d 3a 37 3f bd 70 e0 2e 3f
       0.3693562 0.12375686 -0.046683528 0.68311214
000170 eb 55 62 3f 79 37 90 3e 3d 98 0d 3f fb a1 68 3f
       0.8841235 0.28167322 0.5531042 0.9087216
000180 ca cb 37 3f 09 4b 94 3e 2e d6 24 3d 36 66 f2 3e
       0.7179533 0.28963497 0.04024332 0.47343606
000190 fa 87 96 3d 25 f2 2d 3d f1 e9 3a 3f 6c 74 f8 3e
       0.07350154 0.042467255 0.73013216 0.48526323
0001a0 37 d0 8a 3f 2f a1 37 3f 1a b0 4e 3f fa ef e5 3e
       1.0844792 0.7173032 0.8073746 0.4490965
0001b0 03 ad 48 3f 59 3f 21 3f 6c 87 6c 3f 4f 97 c4 3e
       0.78388995 0.62987286 0.9239414 0.3839669
0001c0 61 d0 96 3e e5 d5 86 3e 1e 1b 45 3f 8e ea d3 3e
       0.29455855 0.26335064 0.769945 0.4138989
0001d0 2c 66 ca 3e 7c 14 4e 3f ed b0 5c 3f 19 a4 9a 3f
       0.39531076 0.80500007 0.8620747 1.2081329
0001e0 b0 42 e9 3d 1a 96 f0 3d 24 3d 29 3f 03 ef 28 3f
       0.11389673 0.117473796 0.6610892 0.659897
0001f0 4b 64 ea 3e 61 0b 1d 3e 6d 3a 67 3f b4 d3 0d be
       0.45779642 0.15336372 0.90323526 -0.1385029
000200 d0 79 72 3f af 9a 39 3f a9 97 1e 3f 9a 18 70 3f
       0.9471712 0.72501653 0.61950165 0.9378754
000210 86 d7 01 3e 2d 59 35 bd 2d 9b 11 3f b4 ab 5b 3d
       0.12679872 -0.044274498 0.56877404 0.053630546
000220 3b 72 32 3f e4 7e 72 3f 14 82 af 3e 80 e3 4c 3e
       0.6970555 0.9472487 0.3427893 0.2000866
000230 ef 12 fc 3e bc c8 83 3f 1e b6 7e 3f 38 6c 61 3f
       0.49233195 1.0295634 0.9949664 0.88055754
000240 86 12 1b 3f 0c 1c 1e 3f 20 42 18 3e 4d 6c bf 3e
       0.6057514 0.61761546 0.14868975 0.37387314
000250 39 f8 eb 3d a1 9a d7 3e 2c cb 06 3f 46 28 91 3e
       0.11521954 0.4211016 0.52653766 0.2835104
000260 5f 26 73 3e 40 23 13 3e 63 63 3b 3f 7d dc 5f 3f
       0.23745106 0.14368916 0.7319853 0.87445813
000270 5e 26 e0 3e 86 71 6e 3f f0 ac 01 3f 8a 1b 17 3e
       0.43779272 0.93141973 0.50654507 0.14756599
000280 20 34 2c 3f f4 e2 06 3f 95 9b 39 3f d1 2e 99 3e
       0.67267036 0.52690053 0.72503024 0.2991853
000290 8e 05 5b 3f 1a 61 57 3f a4 51 01 3f 49 f1 96 3e
       0.8555535 0.8413254 0.505152 0.2948096
0002a0 cc c2 ac 3e 42 43 de 3e 02 af 62 3f b1 63 90 3a
       0.33742368 0.4341069 0.8854829 0.0011016038
0002b0 55 a6 bd 3e b7 dc 26 3f 8b 06 3b 3e 24 cf 73 3e
       0.37040964 0.65180534 0.18264215 0.23809487
0002c0 b8 e0 95 3e 15 68 13 3d ce 3a cd 3e a6 81 ed 3e
       0.2927301 0.035987932 0.40083927 0.46387976
0002d0 e9 1a 5e 3f 64 98 d6 3e 54 58 ea 3e 06 d0 a4 3e
       0.8675981 0.4191314 0.45770514 0.3218996
0002e0 ad 78 3e 3f 4e 25 56 3f 65 3f 27 3f 08 48 29 3e
       0.74402887 0.8365067 0.6533111 0.16531384
0002f0 30 c0 12 3f 8d 1a 54 3f 92 36 5f 3f 64 48 fd 3e
       0.57324505 0.82853013 0.8719264 0.49469292
000300 a0 c2 07 3f e1 a9 3e 3f ff f4 f7 3e e0 a3 53 3f
       0.5303135 0.74477965 0.48429105 0.8267193
000310 7a 7f 9e 3e 17 36 3a 3f 82 af 61 bd c7 ac 2b 3f
       0.30956632 0.72738785 -0.055099018 0.6706051
000320 dd 41 41 bd 33 65 20 3f 67 32 87 3e 7a a3 85 3f
       -0.047181953 0.6265442 0.2640564 1.0440514
000330 52 ca 09 3f 88 39 86 3e bb 12 33 3f 95 50 57 3f
       0.5382434 0.26215768 0.69950455 0.84107333
000340 e8 73 b2 3e 2d 06 88 3f 04 65 bb 3e 9e 12 71 3f
       0.34854054 1.0626885 0.36600506 0.9416903
000350 70 b5 84 3f 49 43 81 3f 18 2e ff 3e f9 2d 59 3f
       1.036787 1.0098659 0.49839854 0.84835774
000360 52 c9 a2 3d b6 a0 c6 3e 3a 5d a5 39 87 89 3a 3f
       0.07948555 0.38794488 0.00031540712 0.728661
000370 18 42 64 3f 7b 3f 85 3f a4 5e 24 3f b5 3a 03 3e
       0.8916335 1.0409998 0.6420691 0.12815364
000380 d3 e3 86 3f aa 5c 00 3f d8 fc c1 3e 46 a1 e9 3e
       1.0538276 0.50141394 0.37888217 0.45630854
000390 35 44 91 3e 01 b3 4f 3f ea 68 d2 3d c6 89 6d 3f
       0.2837235 0.81132513 0.10273917 0.9278835
0003a0 d8 7a 53 3f 04 dd 1a 3d 1c fe 12 3f 01 97 0d 3f
       0.8260932 0.037808433 0.5741899 0.5530854
0003b0 a9 de 57 3e 4c 82 f4 3d ed 43 b1 3e 65 d4 5d 3f
       0.21081032 0.11938915 0.34622136 0.86652213
0003c0 9f b9 87 3e a2 e0 e3 bd 9a a9 1b bd 7d 4f 5e 3f
       0.26508805 -0.1112683 -0.03800354 0.8684004
0003d0 0c 2b 03 3f 68 23 df 3e 5b 19 53 3f 66 34 47 3f
       0.5123756 0.435817 0.82460564 0.7781433
0003e0 c9 19 f3 3e 3e a6 5e 3e 6e f6 22 3f 33 da 2a 3f
       0.4748061 0.21743104 0.6365727 0.66739196
0003f0 47 88 45 3f 8e 9e 8d 3e 93 79 05 be be 07 f9 3d
       0.7716107 0.2766003 -0.13034658 0.1215968

encoder.0.MHA_sublayer.MHA.W_out f4 [4, 4, 16]
000000 57 da 04 3f 09 05 32 3f 86 00 fa 3e 4a 03 9c 3e
       0.5189566 0.69538933 0.48828524 0.3047126
000010 84 f8 05 3e 23 a6 a2 3d 01 87 3f 3f ce da 7e 3f
       0.13083082 0.07941844 0.74815375 0.9955262
000020 72 25 2d 3e c7 cc 2b 3f 65 88 76 3f af 6b e2 3d
       0.16908816 0.6710934 0.9630187 0.11055695
000030 68 b3 db 3e 5d 23 e6 3e 5b 59 88 3e 40 d9 a8 3e
       0.42910314 0.44948855 0.26630673 0.3297825
000040 70 3d 76 bd a3 0c 06 bd 0d a9 04 3f a2 e9 87 3f
       -0.060117185 -0.032726895 0.5182045 1.0618174
000050 5c c0 71 3e d2 ac 1c 3e bf 63 b3 3e cd 9c c7 3e
       0.23608536 0.153003 0.35037038 0.38986817
000060 91 90 60 3f 58 24 e3 3d b7 5b 65 3f cd f3 54 3f
       0.8772059 0.110909164 0.8959307 0.8318451
000070 16 e0 2c 3f 91 1a 49 3f 3f c1 37 3f c7 a0 2c 3f
       0.6752943 0.7855616 0.71779245 0.67432827
000080 f7 ff 4a 3f c2 ac 35 3f 61 9c 8e 3f 20 0a f5 3e
       0.7929682 0.7096673 1.1141473 0.47859287
000090 b9 a9 0d 3f eb fe 0c 3f d3 2e 48 3e 02 fb 5a 3f
       0.553371 0.55076474 0.19549112 0.8553926
0000a0 4d 9f 53 3d 7b 1d 92 3e e2 28 ee 3e b3 6c 89 3e
       0.051665593 0.28538117 0.46515566 0.26840743
0000b0 a6 34 57 3f 08 e4 b4 3e f3 ca 03 3f a7 1d 0d 3e
       0.8406471 0.35330224 0.5148155 0.13780843
0000c0 42 54 f9 3e 59 3e 0d 3e 46 ef 34 3f 46 5d e5 3e
       0.48697096 0.13793315 0.706776 0.44797724
0000d0 24 2d 78 3f 5c b5 20 3e 4e 0b e3 3d 48 85 fb 3c
       0.9694388 0.15694183 0.110861406 0.030703202
0000e0 1c c9 72 3f 38 a2 d4 3e e0 43 ad 3d 63 c9 5b 3f
       0.9483812 0.41530013 0.08460212 0.85854167
0000f0 4e 53 88 3e e3 c9 04 3f a3 80 0b 3e ff 36 48 3f
       0.26626056 0.51870555 0.1362329 0.7820892
000100 2a 14 38 3f 9e 32 bc 3e 87 85 83 3f e0 cf a4 3e
       0.7190577 0.36757368 1.0275124 0.32189846
000110 e7 d9 8d 3e 02 f7 15 3f 03 8a 29 3f a4 b7 10 3f
       0.2770531 0.5858003 0.66226214 0.56530213
000120 2f ab ba 3e a8 47 eb 3e d2 78 1e 3f 6e 97 3b 3f
       0.36458728 0.45953107 0.6190311 0.7327794
000130 58 93 9f 3e f2 d1 ae 3e 00 b0 2a 3e 4d 25 4b 3e
       0.31167102 0.3414455 0.16668701 0.19838448
000140 66 84 e6 3e 9f 56 78 3e c6 61 19 3e 39 7f 2b 3f
       0.45022887 0.24251793 0.14978704 0.66991
000150 d2 f3 5d 3f 5f 26 1d 3f e5 16 60 3f 45 e8 0d 3f
       0.86700165 0.61386675 0.87534934 0.5543254
000160 41 87 99 3e ed 0e 51 3e 3e 55 8f 3e 71 9d 31 3f
       0.29986003 0.2041585 0.27994722 0.6938086
000170 02 38 5a 3e 59 88 45 3f ad f8 6f 3d c3 e6 37 3f
       0.21310428 0.77161175 0.058586765 0.7183649
000180 2b 72 c8 3e 5c 58 7a 3f a3 cd 07 3f f2 c8 36 3f
       0.39149603 0.97791076 0.5304815 0.7140037
000190 46 c8 d4 3e 2f df f1 bd 17 e8 17 3f 62 90 4f bd
       0.41559047 -0.11810147 0.59338516 -0.050674804
0001a0 60 e7 26 3f dd 66 04 3d 5d ad 79 3f ae 74 9a bc
       0.651968 0.03232466 0.97530156 -0.018854465
0001b0 05 0a a6 3e e5 f5 c9 3e 16 f8 27 3e 5f 2d c1 3e
       0.3242952 0.39445415 0.16403231 0.37729928
0001c0 d9 87 37 3f 09 39 5f 3f 67 de cd 3b 4f 7d f8 3e
       0.7169166 0.87196404 0.006282616 0.48533103
0001d0 7e fd 76 3f f2 28 59 3f b1 2b 98 3e cc 63 49 3e
       0.9648055 0.848281 0.29720834 0.19666976
0001e0 c6 99 a4 3e b5 e5 7a 3f 9d e7 5c 3f 5c d5 d1 3e
       0.3214857 0.98006755 0.86290914 0.40983093
0001f0 6b c7 06 3f 04 d9 84 3f df 23 8b 3f ab e9 03 3f
       0.5264804 1.0378728 1.0870322 0.51528424
000200 c2 91 05 3f 00 fe 11 3f 66 b4 2b 3f de 53 74 3f
       0.52175534 0.570282 0.6707214 0.9544047
000210 d1 e8 bc 3e 8a 1c 49 be b4 0e ef 3e f1 05 07 3e
       0.36896375 -0.19639793 0.46690905 0.1318586
000220 1e 1d 88 3e b6 dd e9 3e 82 98 28 3f c3 e1 25 3f
       0.26584715 0.45676965 0.6585771 0.6479761
000230 0b 60 00 3f 1c 77 27 3e e8 5a 0b 3f 77 67 f8 3e
       0.5014655 0.1635403 0.54435587 0.48516437
000240 ae 45 0c 3f df 11 72 3f fc 78 32 3d 1a 4a 09 3f
       0.5479382 0.9455852 0.04357241 0.53628695
000250 ea 6c eb 3e 2b 56 16 3e 15 d1 d6 3d df 95 11 3f
       0.45981532 0.14681308 0.10489098 0.5686931
000260 ad 2c 83 3d d7 39 2e 3f 6f 2b 26 3f b0 56 f8 3e
       0.064050056 0.68057007 0.64910024 0.48503637
000270 70 af 1d 3f 72 43 50 3f f5 b4 74 3f c4 a7 6f 3f
       0.6159582 0.81352913 0.9558862 0.93615365
000280 7f 4f 41 3f 61 50 1c 3f 5e d3 77 3f 4e 61 68 3f
       0.75511926 0.6106015 0.96806896 0.90773475
000290 a7 ce c5 3e 43 75 97 bd 2b 1f 32 3f 7e 6f de 3e
       0.38634226 -0.07395413 0.6957881 0.43444437
0002a0 9c 01 e8 3e 96 77 8a 3e 40 08 6d 3f 5e 7c 16 3e
       0.45313728 0.27044362 0.92590714 0.1469588
0002b0 32 38 1d 3f d7 cc 4f 3f e2 22 3f 3e d1 70 8a 3f
       0.6141387 0.81171936 0.1866565 1.0815679
0002c0 11 45 c9 3e ff de e5 3e 21 a7 1b 3f c3 bd b6 3e
       0.39310506 0.44896695 0.60801893 0.35691652
0002d0 98 2f 49 3f 40 b4 11 be aa ed 5c 3d 97 bf 93 3e
       0.7858825 -0.14228916 0.05393759 0.2885711
0002e0 5e 4d e1 3e a6 11 d8 3d e7 83 33 3e 3a fe 89 3d
       0.4400434 0.10550241 0.17530786 0.06737943
0002f0 8c c1 9c 3e 5c 0d 5c 3f 1c ba b0 3e ca b2 82 3e
       0.30616415 0.85957885 0.3451699 0.2552703
000300 e2 db a8 3e 5f 21 72 3f 0e 16 83 3f 9d ca 4d 3e
       0.32980257 0.9458217 1.0241106 0.20096822
000310 05 23 64 3e 34 84 94 3e 9e cd 00 3e 3e 89 d8 3e
       0.22278984 0.29007113 0.12578437 0.42292207
000320 80 64 4b 3f 0e f7 3a 3f b9 22 2e 3f 64 f4 dc 3e
       0.79450226 0.73033226 0.6802173 0.43155205
000330 81 b0 9d 3d cd 65 54 bd 6c 57 cc 3e 7c 51 e2 3e
       0.07699681 -0.051854897 0.39910448 0.44202793
000340 63 68 1a 3f ad 98 4a 3f ca ea b7 3e c0 87 1b 3f
       0.6031553 0.79139215 0.35921317 0.60754013
000350 3b 59 5f 3d 58 db 40 3f a1 f1 53 3e 26 12 3f 3f
       0.054528456 0.7533469 0.20697643 0.7463707
000360 05 0b 1d bd b7 bf 1c 3f c6 9a 1f 3f e5 e7 11 3f
       -0.038340587 0.61230034 0.6234554 0.5699447
000370 ac 83 ff 3e 8c d4 69 3e 4b 27 2e 3f e8 4c 6b 3f
       0.49905145 0.22834986 0.68028706 0.91914225
000380 4e 3b f8 3c b0 52 75 3f 1b ca b9 3d f3 01 4b 3d
       0.030301716 0.95829296 0.09071752 0.049562406
000390 2b c6 1b 3f a7 e7 26 3e 2f 81 ce 3e 92 51 cc 3c
       0.60849255 0.16299306 0.40332934 0.02494124
0003a0 c4 7c 5e 3f 35 d5 70 3f b6 77 0a 3f 5a 3b d6 3e
       0.8690913 0.9407533 0.54088914 0.41842157
0003b0 c3 87 5d 3d 99 09 52 3f 75 4f 14 3f e8 70 34 3f
       0.05408455 0.82045895 0.5793374 0.7048478
0003c0 14 4e 82 3e 0e d9 81 3f 87 47 f9 3e e6 79 b1 3e
       0.25450194 1.0144365 0.48687384 0.34663314
0003d0 8b af 23 3f 72 8e 08 3f 86 f3 81 3f cc 33 48 3f
       0.6393973 0.53342354 1.0152442 0.78204036
0003e0 2c 0e 22 3f 79 72 eb 3e 74 ad 27 3f 73 52 a2 3e
       0.63302875 0.45985773 0.65499043 0.3170353
0003f0 9a 2a a8 3e af 92 74 3f b7 8d 6b 3e 47 1d a1 3e
       0.32845002 0.9553632 0.23003279 0.3146765

encoder.0.FFandNorm_sublayer.FF.0.weight f4 [16, 16]
000000 ae 60 3e be 80 40 a7 bd 5b 63 07 3e 01 11 66 3d
       -0.18591568 -0.08166599 0.13221495 0.05616856
000010 08 9f ba be 8c 2d fb 3d d5 41 d8 be c9 cc 4a be
       -0.36449456 0.12264547 -0.42237726 -0.19804682
000020 07 79 b2 be e4 d7 c4 be 57 6a 2c be 37 1c 29 3d
       -0.34857962 -0.3844596 -0.1683744 0.041286673
000030 22 83 a5 3e 8a 82 39 3b 44 0e 93 3d 1d e0 20 3d
       0.3232661 0.0028306567 0.07180455 0.03927623
000040 5b 33 84 3e 84 63 5b 3e 47 5f ee 3e 53 f7 56 bd
       0.2582043 0.21424681 0.46557066 -0.05248196
000050 35 54 01 be 37 ec 0d 3e a1 7c cb bb ef 90 cb 3c
       -0.12629779 0.1385964 -0.0062099253 0.024849383
000060 a4 44 86 3d cc 78 3d be ec f1 03 bd 85 9b 15 3e
       0.06556061 -0.18503112 -0.032213137 0.14610107
000070 ce 7e 78 bc ec 6c 9b 3d 6b 00 ae be 98 e4 25 3d
       -0.015166951 0.075891346 -0.33984694 0.040501207
000080 19 43 5c 3d 9f 24 5b bd e8 6f 25 be 99 38 59 bd
       0.053774927 -0.05350172 -0.1615597 -0.05303249
000090 eb a5 0e be 40 2e 33 be f4 4f 43 3e c1 cd 87 be
       -0.1393048 -0.17498112 0.19073468 -0.26524165
0000a0 a5 8a cb 3d db 2b 70 be 3f 8b 3d be 08 cb 27 3d
       0.09938554 -0.2345423 -0.1851015 0.04096511
0000b0 bd c0 a7 3c 50 d3 f5 3d 70 b9 91 3d 5f 56 b6 bd
       0.020477647 0.12003195 0.071154475 -0.08903193
0000c0 98 94 bd bd 7f f6 ca 3c a2 3a 4a be 9e ba 33 3d
       -0.09256858 0.024775742 -0.19748929 0.043879144
0000d0 63 87 99 3e ee d2 84 be 62 5e 8d 3d 6c 77 03 bf
       0.29986104 -0.25942177 0.06902768 -0.513541
0000e0 b9 59 e1 bd 25 e8 35 be f7 4e a0 be 0b 5c 52 3e
       -0.11003441 -0.17764337 -0.31310245 0.20542924
0000f0 99 49 ea 3d 4f f4 2e 3e c0 42 18 3d 65 13 68 3e
       0.11439819 0.17085384 0.037173033 0.22663648
000100 80 f7 ab be 8d 6a 12 3e bc e3 83 3e 5e b8 0b 3e
       -0.33587265 0.14298458 0.25759685 0.13644549
000110 11 8c e1 3b f3 12 dd bd 1d c9 f2 be d4 0b 40 3d
       0.0068831523 -0.1079463 -0.47419062 0.04688628
000120 72 08 8b be 14 ea 36 be 31 8a c8 be 07 59 24 be
       -0.2715488 -0.17862731 -0.39167932 -0.16049586
000130 99 2a b6 bd 05 86 86 be f2 74 84 bd 5e c9 7b be
       -0.088948436 -0.26274124 -0.06467618 -0.24588534
000140 d2 08 d1 bd 09 9d f3 3b 6a 6b 8a 3e 38 f2 af 3e
       -0.102067605 0.0074344915 0.27035075 0.34364486
000150 51 ef b7 bc b4 f0 25 3e 3c 58 b5 3e 55 f7 94 bd
       -0.022452982 0.16205102 0.3541888 -0.07273737
000160 8e 05 ad 3d 84 57 25 3e 8a 9a ad 3e 57 d7 17 be
       0.08448325 0.16146666 0.33906966 -0.1482824
000170 7a e3 de 3e 31 05 a1 3d e8 2d e1 bd a0 11 d8 3e
       0.43532926 0.07862318 -0.10995084 0.42200947
000180 8f 18 bb be 9d 52 cc be f1 fc e0 bd 6b e5 ed 3d
       -0.36542174 -0.3990678 -0.10985745 0.11616024
000190 5e ff 52 3d 0e d0 93 3c 38 1f 5f be da 35 26 bd
       0.05151307 0.018043544 -0.21789253 -0.0405787
0001a0 cf a0 81 be 4a 03 ca be b2 db ba be 84 f8 b6 be
       -0.25318 -0.39455634 -0.3649574 -0.35736477
0001b0 44 52 db bc fc 4e 8a bc b6 da 28 be ff 68 0c be
       -0.026772626 -0.016883366 -0.16489682 -0.13711928
0001c0 30 55 7c 3d 26 ee 07 3c b2 2c 82 b9 3c 1c cc 3e
       0.06160468 0.008296525 -0.00024828833 0.3986529
0001d0 ee 28 d6 bd ce 56 82 be 8b c4 f1 3d 2d eb 43 bd
       -0.104570255 -0.25456852 0.11805066 -0.047831703
0001e0 f7 a6 09 bd e5 b6 82 be 41 68 7c 3e 5e fb 9b be
       -0.033606496 -0.25530162 0.24649145 -0.30465215
0001f0 18 b0 59 bd 15 dc 69 3e b6 03 67 3e 74 24 82 be
       -0.05314645 0.22837861 0.2256001 -0.25418437
000200 bf 22 0d b9 51 ec a5 3d bf 6f 5b be 2c f1 1f 3e
       -0.00013459752 0.081017144 -0.21429347 0.15619344
000210 0d 8a 42 be 1b 5c 89 3e 12 5d 48 3e 70 42 26 3e
       -0.18997975 0.26828083 0.19566754 0.16236281
000220 17 6b 70 3b 59 11 3f be 85 56 96 be ad 91 38 bd
       0.0036684924 -0.18658961 -0.29362884 -0.045060802
000230 d1 b8 99 3d 06 c7 7c 3d 7f 6f 2d bd f8 13 76 3b
       0.07505954 0.06171324 -0.04234266 0.0037548523
000240 07 3c 3a 3e 55 0f 5e 3e c6 71 81 3e 1f 05 e3 be
       0.18186961 0.21685536 0.25282115 -0.44339845
000250 79 ca bc 3d d4 f9 ad 3e 00 1c 16 3d f3 27 14 3f
       0.09218306 0.33979666 0.036647797 0.5787346
000260 a7 08 52 3d 3e 7f 4e 3e 5f c8 4c 3e 96 7f 2b 3e
       0.051277783 0.20165727 0.1999831 0.16747889
000270 d8 57 7f be 76 3f e2 be 6c 1a ae bb 6a 62 b1 3b
       -0.24935853 -0.44189042 -0.0053132083 0.005413343
000280 2e 51 03 be 83 9f 18 be 89 0d d6 3d 26 72 95 3e
       -0.12823936 -0.14904599 0.104518004 0.2918865
000290 ee 87 3c 3e 02 e6 93 bd 5d e7 a4 3d bc 08 b9 bd
       0.18411228 -0.07221605 0.080519415 -0.09034869
0002a0 3b 80 00 3e 5a c4 6b 3e de ed 8d 3e ab 21 88 3e
       0.12548916 0.23024121 0.2772054 0.26588187
0002b0 67 47 03 3d 65 af 28 3e 6b e0 ea 3e 00 1b 0b be
       0.032050516 0.16473158 0.45874342 -0.13584518
0002c0 61 57 3f bd ae 2d 68 3e 36 ea 98 3d ae fc 7a 3e
       -0.04671419 0.22673675 0.07466547 0.24510452
0002d0 35 95 02 bb 5a e5 28 be c0 18 e4 bd 1b 5c 36 3e
       -0.001992536 -0.1649374 -0.11137533 0.17808573
0002e0 e0 ac 29 3e f3 c3 cf 3e c9 81 ea 3d 99 10 2f 3e
       0.16569853 0.40579185 0.11450536 0.17096175
0002f0 9b b3 5f 3e 2f 58 79 3e 37 aa c0 3d 8c fe f8 bd
       0.21845858 0.24350046 0.09407466 -0.12157926
000300 c7 ba 67 be b3 b4 4e be 60 47 89 be 1c 3f 29 3e
       -0.22629844 -0.20186119 -0.26812267 0.1652798
000310 bb f6 53 bd bc 43 42 bc da 62 d8 3c 57 4c 4e be
       -0.051748972 -0.011856969 0.026414324 -0.20146309
000320 24 5c 02 3d c1 5d 2b 3c f5 85 40 be 42 9d 0a 3d
       0.031826153 0.010459364 -0.188011 0.03384138
000330 29 53 81 bc 10 34 32 3d 53 5f bc 3d 0b 3e d3 bd
       -0.015786724 0.043506682 0.09197869 -0.10314568
000340 0e d5 96 3d c0 89 a8 bd ae 1a 81 3e 41 dd 99 3c
       0.07364856 -0.08229399 0.25215667 0.01878226
000350 57 65 11 be b3 c3 c3 bd 5b aa 57 3e 92 67 1f 3e
       -0.14198814 -0.09558811 0.21061079 0.15566853
000360 9b 2f 6d bb 03 fd 1c 3e 92 8c 93 3e 58 f6 a4 3c
       -0.0036191705 0.15330891 0.28818184 0.020136997
000370 2f 5c 94 be f5 b4 ab 3e 5e 52 51 3e 4f e2 ef 3d
       -0.2897658 0.33536497 0.20441577 0.11713087
000380 47 33 2f bd 5b 87 ce be 1b 1e fb bc 2d 8b 70 3a
       -0.04277351 -0.40337643 -0.030654004 0.0009176012
000390 a6 e2 04 be 86 4f 02 3e c1 8a 53 be 72 f3 3d be
       -0.12977085 0.12725648 -0.20658399 -0.18549898
0003a0 be 94 2c 3d 76 3b b5 bd c0 30 d3 be fb c4 75 bc
       0.04213404 -0.08849232 -0.4124813 -0.015000577
0003b0 6d f4 a9 3d 37 c4 ba be f0 11 7d bd e4 db 87 be
       0.08298574 -0.36477825 -0.061784685 -0.2653495
0003c0 ba f9 11 3e a2 af 69 be 55 99 36 be 8d 85 f3 bd
       0.1425542 -0.22820905 -0.17831929 -0.11890707
0003d0 86 8f 07 be 7e c1 17 3f e8 39 16 3e b0 76 ac 3e
       -0.13238344 0.5927962 0.14670527 0.336843
0003e0 78 64 ef bd 61 d6 73 3e 34 c2 e7 3d f8 b8 85 3e
       -0.11689085 0.23812248 0.11316338 0.26117682
0003f0 3c a4 4a bd 80 f6 d6 be c7 49 95 3e 5a ac 84 be
       -0.049473032 -0.4198494 0.2915785 -0.25912744

encoder.0.FFandNorm_sublayer.FF.0.bias f4 [16]
000000 09 ee bb bd 43 55 7f 3e de fe 5a 3e 18 c0 07 3e
       -0.09176261 0.24934869 0.21386287 0.13256872
000010 f3 63 cb bd b7 a3 4f 3e c0 1d 26 be d1 ce 70 3d
       -0.09931173 0.20277296 -0.16222286 0.058790985
000020 26 99 4b be c3 b4 22 be 5e 28 94 bc 1b 13 21 3c
       -0.1988264 -0.15889268 -0.018085655 0.009831215
000030 c7 0a ba 3d 8a 98 11 be 82 45 ab be 41 af 5a bd
       0.09084087 -0.14218345 -0.33451468 -0.05338979

encoder.0.FFandNorm_sublayer.FF.2.weight f4 [16, 16]
000000 b2 e7 e2 bd 71 96 5e be 12 c3 3c 3e 1c 7f ae 3e
       -0.110793486 -0.21737076 0.18433788 0.34081352
000010 94 9a e8 3d bf 8a 5e be 86 5e 98 3d 4b 12 96 3e
       0.113576084 -0.21732615 0.07439904 0.2931083
000020 bb 7f 70 be 49 07 bd 3e 67 45 7e 3d f2 14 1e 3e
       -0.23486225 0.3691962 0.062077906 0.15437678
000030 17 33 cf bd 86 ec 4c be 58 56 03 3e e9 a2 03 bf
       -0.101171665 -0.20012102 0.12825906 -0.51420456
000040 28 3d 40 3e 27 91 7c bc 2d 36 2a 3e e4 21 89 3e
       0.1877333 -0.015415466 0.16622229 0.2678367
000050 65 7d 9e 3e 9d c0 cd 3d 86 4c fc 3d fd ea 86 be
       0.30955043 0.10046504 0.12319283 -0.26351157
000060 3c 6f 84 be 0f d7 d2 bd 1d 2d fb bd dc 95 54 be
       -0.25866115 -0.102949254 -0.12264464 -0.20760292
000070 a1 22 93 bd 0d 48 3d bd ab 4b 5c 3e ed 8c fc bd
       -0.07184339 -0.04621129 0.2151324 -0.12331567
000080 d6 53 c5 3e 24 67 97 be 6a 03 c5 3d 7b 05 58 3c
       0.38540524 -0.29570878 0.09619792 0.0131849
000090 0c ed f9 3d ad 41 18 be 9c 0b dc 3e b7 d8 3b be
       0.12203416 -0.14868803 0.42977607 -0.18344389
0000a0 e8 e4 83 be 9e e6 68 be 65 32 04 be 20 da a2 bd
       -0.2576058 -0.22744223 -0.12909849 -0.0795176
0000b0 ad d4 07 be 70 fc 85 be f9 dd a7 3e 46 06 11 3e
       -0.13264723 -0.26169157 0.3278654 0.1416255
0000c0 61 6b 16 3e ac 0c 03 bd 3d b6 da 3d d8 12 58 3e
       0.146894 -0.031994507 0.106792904 0.21100938
0000d0 9c 20 03 be ff 07 3d be fa 2e 33 bd 74 9e c6 be
       -0.12805408 -0.18460082 -0.043745972 -0.38792765
0000e0 df 1e 40 3e ec 6b 73 3d 67 48 66 be e6 c6 8a 3e
       0.18761776 0.059429094 -0.22488557 0.27104872
0000f0 10 10 ad be 1b e0 ff 3d 9b 3c 0a 3e 99 a1 9a be
       -0.33801317 0.124939166 0.13499682 -0.30201414
000100 08 c5 bd bd 5c f3 bc bc 48 4d 79 3e 2a 64 4b be
       -0.09266096 -0.023065262 0.24345887 -0.19862428
000110 e7 fb 0f be 8f 1d 8e bd 0d 72 11 bb 8a 60 19 be
       -0.14060937 -0.069392316 -0.0022193224 -0.14978233
000120 2a f3 9b 3d c8 f0 75 be 4f 49 80 bd 71 be a9 be
       0.07614739 -0.24017632 -0.062639825 -0.33153108
000130 61 a0 34 bd b9 e8 ee 3d d8 15 7b 3e d0 60 f1 be
       -0.04409826 0.11665482 0.24520051 -0.47144175
000140 da b9 01 bd 89 3a 2f be 26 74 0d 3e 91 e8 08 3e
       -0.031671382 -0.17112173 0.13813838 0.13369967
000150 a6 1c d1 bc 8d 7f 53 bd 22 78 d3 3d 9d d4 cd 3d
       -0.025526356 -0.051635314 0.10325648 0.100503184
000160 16 f8 52 3e 0d d4 55 3e dd c8 8a be 15 28 fa be
       0.2060245 0.20881672 -0.27106372 -0.48858705
000170 c4 d1 3c 3e 04 90 94 be ee a9 22 3e 49 a7 05 be
       0.18439394 -0.29016125 0.15885136 -0.13052095
000180 df c6 0d 3e 41 d0 7c be 63 2a 87 3d 77 35 03 be
       0.13845395 -0.24688818 0.065998815 -0.12813364
000190 af 39 76 be e6 28 d5 3d 36 de 6e 3e c3 73 b8 be
       -0.24045442 0.104081914 0.23326954 -0.3602582
0001a0 e8 22 e5 bd 6f 4f dc be f7 d1 ad 3d 32 e2 38 be
       -0.111882985 -0.43029353 0.08487313 -0.18055037
0001b0 32 2e b2 be 09 e6 65 3d 7e cc ac 3e 8e 03 8d 3d
       -0.3480087 0.05612758 0.33749765 0.06885444
0001c0 67 ce 96 3e 78 47 b6 3c 04 5f 42 be 11 85 63 be
       0.29454347 0.022250876 -0.18981558 -0.2221873
0001d0 32 08 65 be 47 86 25 be fa 58 00 3e a0 99 c2 be
       -0.22366408 -0.16164504 0.12533942 -0.38007832
0001e0 62 cb a4 3e d1 30 22 b9 66 f0 04 be 13 fd 4f be
       0.3218642 -0.0001546771 -0.1298233 -0.20311384
0001f0 73 31 c2 3d 0f 75 30 3d db 7c ac 3e c9 b4 bf 3e
       0.09482088 0.043080386 0.33689007 0.37442616
000200 53 94 c4 3e f3 21 f7 be f0 3e 80 bd 7e 01 2e be
       0.38394412 -0.4826809 -0.062620044 -0.16992757
000210 56 42 51 3e b2 e8 28 3d 5b 3f a7 3e fb 42 66 3e
       0.20435461 0.04123754 0.32665524 0.22486489
000220 3c 82 b0 be 33 f4 18 3d da 19 89 be 13 4a 31 3e
       -0.3447436 0.03734226 -0.26777536 0.17313413
000230 cd 02 12 3e 3d 55 26 be df 93 18 bd 2e bf 52 3e
       0.14258881 -0.16243453 -0.037250396 0.20580742
000240 7e 46 fb bd e3 28 98 3e a0 53 de 3d 0b 01 1e 3e
       -0.12269305 0.29718694 0.10855794 0.15430085
000250 80 6c c6 be 16 01 0e bf d1 d7 91 3c e8 e9 b3 bc
       -0.38754654 -0.55470407 0.017803105 -0.021962121
000260 0b ad 5d 3e d2 9e 6a be 5f 89 53 3e 11 26 53 be
       0.21648042 -0.22912148 0.20657872 -0.2061999
000270 e3 06 82 bd b7 96 49 3d 98 5d 73 3e f9 47 13 be
       -0.0634897 0.049216 0.23766172 -0.14382924
000280 79 45 32 be e5 41 79 be f0 f1 93 3e 45 bf ca 3e
       -0.17409314 -0.24341543 0.2889552 0.39599052
000290 f8 61 98 bd 20 dd 16 be 29 d3 8d 3e 27 64 bc be
       -0.07440561 -0.1473279 0.27700165 -0.3679516
0002a0 f7 cc 61 3c 91 47 aa 3d 24 1e 69 be bf 8f 83 bd
       0.013781778 0.083144315 -0.22765404 -0.06423902
0002b0 13 6c e8 bd 7a 1f df bd 98 bb c6 bd a4 2b c7 be
       -0.113487385 -0.108946756 -0.097037494 -0.38900483
0002c0 4b f7 4b 3e 35 6f 19 be a8 ec 83 bd 77 4b d8 be
       0.19918554 -0.14983828 -0.06441623 -0.42245075
0002d0 4e 93 62 3e 5c 56 33 be 65 6c 0b be 60 23 cb bd
       0.22126505 -0.17513412 -0.13615568 -0.099188566
0002e0 50 ee 1b 3e 65 d4 21 be 6a 3d b2 be aa 30 bf be
       0.15227628 -0.15803678 -0.3481248 -0.37341815
0002f0 a3 df a3 3c 72 3f 8a be 06 53 04 3c 0c ce 23 3c
       0.0200041 -0.2700153 0.008076435 0.009997856
000300 a5 35 12 be df 50 bd 3d 2f 6b cb 3d 13 0e 25 3e
       -0.14278276 0.092439406 0.09932553 0.1611865
000310 2b 2d e5 bd b1 d6 3f bd 7b 99 26 3e 1c ca bb be
       -0.11190256 -0.046835605 0.16269486 -0.36677635
000320 ef 95 a8 bd ec 47 a3 be 69 5d 2b 3e 29 ec 62 bc
       -0.082317226 -0.3189081 0.16734852 -0.01385025
000330 e5 22 be be e1 7b b4 be 4c 2d 2d be eb 45 c3 be
       -0.37135997 -0.35250762 -0.1691181 -0.3813928
000340 dc b1 fc bd 19 7c a9 be 1c 9a 96 bc ab 5c c3 3e
       -0.123386115 -0.33102491 -0.018384032 0.38156638
000350 ae 9b 6c bd ad 9d 34 bf 59 8a 94 be ef 29 8c 3d
       -0.057765655 -0.70553094 -0.290118 0.06843936
000360 58 02 13 3d b8 f3 1b 3e 36 17 72 bd d4 ee 84 3e
       0.035890907 0.1522969 -0.059104167 0.2596346
000370 3e ee e1 bd e4 58 da be 78 bf 33 3d ac 39 b9 be
       -0.11031769 -0.42645943 0.04388377 -0.36176813
000380 5c fa 7e bd 86 ff 4b 3e 1e 79 88 3e 0e dc 7f bd
       -0.06225048 0.19921693 0.26654905 -0.06246572
000390 40 00 e5 3d b8 29 3b 3d 65 db af bd 98 93 23 3d
       0.11181688 0.045694083 -0.08586768 0.03993568
0003a0 05 d1 ff 3d c7 7b 0e 3f 67 2c 7b be 7b 9a 12 be
       0.12491039 0.5565762 -0.24528657 -0.14316742
0003b0 29 2a 3f bd ec 6c 68 3e 77 56 98 be 5d 72 5b be
       -0.046671066 0.226978 -0.29753467 -0.21430345
0003c0 e6 8b 8f be 46 70 92 bd 54 82 ed 3a 7e fb 73 3e
       -0.28036422 -0.07150321 0.0018120506 0.23826405
0003d0 6b d8 1d be 0e 87 66 3e c5 dd b1 3e 81 3f 00 be
       -0.15414588 0.22512457 0.3473951 -0.12524225
0003e0 63 39 cf 3c 25 76 28 3e 95 0c cf be 4b a6 45 3d
       0.025295919 0.16451319 -0.40439287 0.048254292
0003f0 2b c4 15 3e f7 c8 2b 3c 1e be 21 3d 69 db 94 be
       0.14625613 0.0104849255 0.03948795 -0.29073647

encoder.0.FFandNorm_sublayer.FF.2.bias f4 [16]
000000 8d 06 ef 3d 3e f8 5a be df e3 58 3e 7a 6f be 3d
       0.11671171 -0.2138376 0.21180676 0.09298606
000010 f5 a5 81 3e 27 d3 98 be 5e eb 18 be 76 da be bd
       0.25321928 -0.29848596 -0.14933535 -0.09319012
000020 2f ad 7d 3e ac 40 ac bd 27 fe 4a be bb 5d 3c 3c
       0.24773096 -0.08410773 -0.19823514 0.011496956
000030 d4 91 18 bd 88 b4 26 be 55 05 7a be 0d 79 69 3e
       -0.037248448 -0.16279805 -0.24416097 0.22800083
